data/models/models/NeuralNetFastAI/model-internals.pkl (torch, 181064 bytes, 19 tensors)

weight f4 [5, 4]
0.004252824 0.0010872638 0.006197873 0.004266949 -0.0041896133 -0.12420243 -0.020451682 -0.0044246675
-0.18877678 -0.055850677 0.2910657 -0.11580263 -0.19469762 -0.11248895 0.15382695 0.095218465
-0.11253438 -0.17257267 0.16155721 0.051634245
00000000: 465b 8b3b 8582 8e3a 8717 cb3b c3d1 8b3b
00000010: 0649 89bb d85d febd 498a a7bc cdfc 90bb
00000020: b34e 41be aec3 64bd 9006 953e ee29 edbd
00000030: d05e 47be 9b60 e6bd d084 1d3e e601 c33d
00000040: 6d78 e6bd e4b6 30be 416f 253e 6e7e 533d

weight f4 [6, 4]
-0.002116601 -0.004208038 -0.0007052452 -0.00032872305 -0.17932457 0.06905766 -0.009687711 -0.020379422
0.032426134 -0.102284856 0.23651534 -0.37067202 -0.5453937 -0.050208267 0.08270618 -0.13430113
0.11645213 0.2950089 -0.24996307 0.18441418 0.11978096 -0.22575875 0.45390055 -0.19619107
00000000: acb6 0abb 95e3 89bb 34e0 38ba 7658 acb9
00000010: dca0 37be 1a6e 8d3d 34b9 1ebc bff2 a6bc
00000020: 44d1 043d b97a d1bd 1431 723e b9c8 bdbe
00000030: ec9e 0bbf 2fa7 4dbd dc61 a93d 3c86 09be
00000040: 747e ee3d 680b 973e 52f6 7fbe 12d7 3c3e
00000050: b84f f53d 4d2d 67be a765 e83e 50e6 48be

weight f4 [10, 6]
-0.0014001186 0.0061671687 -0.002720692 -0.012862808 -0.0063236724 0.01663447 -0.17149936 0.25665247
-0.08889604 0.000538709 0.11335762 -0.108953126 -0.06924458 0.076402195 0.0073870937 -0.17801319
-0.026151532 -0.022894453 -0.009169636 -0.14870779 -0.20668578 -0.26458278 -0.011516609 -0.09194266
-0.013722753 -0.015225533 -0.29031974 -0.123428605 0.30016205 -0.29134244 0.007771215 -0.15019469
-0.30246824 -0.09998249 0.016996456 -0.054259505 0.16984206 -0.10269585 -0.047836058 0.04226878
0.11731217 -0.008152805 0.17124681 -0.02120533 -0.021636995 0.07753337 0.18834977 -0.22409311
-0.11092025 0.05523159 -0.18948245 0.02143167 0.07961381 0.037988734 0.27133152 0.1262501
-0.13293882 0.19887266 0.34721753 -0.2859921
00000000: 2f84 b7ba f615 ca3b a34d 32bb 87be 52bc
00000010: cf36 cfbb 0345 883c 879d 2fbe f467 833e
00000020: 210f b6bd 2638 0d3a 0a28 e83d d122 dfbd
00000030: 1ad0 8dbd c178 9c3d 6f0f f23b 1749 36be
00000040: bd3b d6bc 268d bbbc 3e3c 16bc db46 18be
00000050: 70a5 53be 6577 87be 29b0 3cbc 6f4c bcbd
00000060: 66d5 60bc 8474 79bc caa4 94be 23c8 fcbd
00000070: d7ae 993e d62a 95be ada5 fe3b a3cc 19be
00000080: 1edd 9abe 9fc3 ccbd 273c 8b3c 373f 5ebd
00000090: 14eb 2d3e 3452 d2bd beef 43bd 0722 2d3d
000000a0: 5d41 f03d 5893 05bc 535b 2f3e cdb6 adbc
000000b0: 1140 b1bc d1c9 9e3d c3de 403e aa78 65be
000000c0: 282a e3bd 853a 623d b007 42be 7891 af3c
000000d0: 910c a33d 139a 1b3d f7eb 8a3e b547 013e
000000e0: 1d21 08be 46a5 4b3e 7fc6 b13e 8e6d 92be

weight f4 [5, 4]
0.0037011055 -0.0053170123 -0.009614504 0.01301817 -0.055583537 -0.029977014 -0.03267063 0.06493354
0.16352965 0.13773808 0.14900169 -0.13769242 -0.13053118 -0.091287814 -0.063546285 0.13214363
0.070404306 -0.012644034 -0.012822339 -0.0019055429
00000000: 3f8e 723b 553a aebb 2786 1dbc 2a4a 553c
00000010: 90ab 63bd 5b92 f5bc a3d1 05bd e0fb 843d
00000020: 5174 273e 360b 0d3e e693 183e 3eff 0cbe
00000030: f7a9 05be 1bf5 babd 8e24 82bd a950 073e
00000040: 2230 903d ec28 4fbc ca14 52bc 69c3 f9ba

weight f4 [3]
0.97716856 0.8748607 0.953712
00000000: b827 7a3f dff6 5f3f 7826 743f

bias f4 [3]
-0.33665755 0.27246746 -0.03837885
00000000: 615e acbe db80 8b3e 2433 1dbd

running_mean f4 [3]
0.015701877 0.00015044461 -0.018596645
00000000: 39a1 803c abc0 1d39 fe57 98bc

running_var f4 [3]
1.0173187 1.0426987 1.0155398
00000000: 8037 823f 2777 853f 35fd 813f

weight f4 [200, 21]
0.1701587 0.22008516 0.16581683 0.20759697 0.744766 -0.048948634 -0.10436546 0.35372207
-0.13139237 0.25365233 0.16049896 -0.06367067 -0.1215309 0.25936025 -0.15544105 -0.1290903
-0.1554541 0.08230155 -0.18240814 0.10935708 0.12083869 0.057218704 -0.18007061 -0.04453133
-0.01392904 -0.08827962 -0.67989814 0.52653027 -0.10069713 0.021827187 0.11863634 0.084593244
0.17304936 0.20583192 -0.19382776 -0.024992412 0.076745145 -0.0036920817 -0.10574263 -0.058160063
-0.04295726 -0.048624653 0.15354365 0.2160535 -0.04783995 -0.21976367 -0.37309328 0.02375647
0.26721954 -0.42244452 0.11645189 -0.47586977 -0.017953383 0.14484099 -0.21592525 0.39467362
0.23654567 0.023462748 -0.15274745 -0.21407846 0.104313925 -0.101777665 0.058998898 -0.014033406
0.111868836 -0.27193806 -0.3005932 0.13877358 -0.29463944 0.22092743 -0.058903925 0.20867322
0.0702393 -0.09543026 0.41732997 0.22724031 0.13685137 -0.032757074 -0.1428229 0.075904936
0.024532573 0.1215711 -0.18044259 -0.17040399 -0.39924547 -0.4024671 0.21816146 -0.045081437
-0.22142905 -0.077602014 0.3043263 -0.4133766 -0.36946127 -0.08689386 0.0466445 0.10003226
0.106390364 0.09896313 0.04731018 -0.32197505 -0.33152947 0.1867576 -0.108448796 0.16715097
-0.10324429 -0.004650405 -0.099039644 0.14324996 0.015529134 0.19278415 0.31046697 -0.19331828
0.18793298 0.33832532 -0.28863454 0.021121927 0.24746779 0.072422065 0.00896326 0.011986176
-0.113877684 -0.05808166 0.23057951 0.10512862 -0.28566048 0.16286595 0.067319274 0.11343839
0.016639972 -0.059027452 0.5048006 0.11999568 -0.26413086 0.44051784 -0.06319058 0.25590312
-0.104603335 0.028529532 0.15632935 -0.08874846 -0.07934269 0.06908884 0.2352423 0.013716546
0.09095366 -0.018066535 0.06489463 -0.032537892 -0.04242201 -0.06667913 0.09171932 0.063374355
0.083379135 -0.3243437 0.4225918 0.37476328 -0.07010553 -0.2053217 -0.0012159443 0.10805588
-0.24152566 0.037283666 0.039560553 0.22088595 -0.2566633 0.07473348 -0.06870399 -0.10922303
0.20166364 0.2652581 -0.2878527 -0.0361619 0.10205731 0.4284332 -0.5522948 0.22716467
0.33157662 0.030271988 0.12480136 -0.0033795442 0.18231505 -0.20084785 0.3251841 0.09651241
-0.090470314 -0.23883641 0.0060292045 0.0194724 -0.18688023 0.616775 0.14173472 -0.51252776
-0.049648643 0.15403062 -0.10262279 0.18257467 -0.21484607 -0.03616562 -0.3122618 0.58302426
0.17109473 -0.5879071 0.56479436 0.09384516 -0.033560544 -0.12332008 -0.38507044 0.08847575
0.004547412 0.025592847 0.3293834 0.3022211 -0.22120851 0.1498247 0.03398151 -0.57087153
0.0672422 0.043133512 0.13407812 -0.011707364 -0.2303509 0.2131657 0.06644171 0.2332554
-0.18933888 -0.08535274 -0.2258256 0.17400394 -0.04288334 -0.13823669 0.12230336 -0.06654364
-0.17149793 -0.014008308 0.07898758 -0.07428271 0.09023709 0.033148598 -0.009207126 -0.19198692
0.0049430933 -0.09502747 -0.20339799 -0.07811963 -0.017309206 0.182492 -0.03508784 -0.26596308
0.06804498 -0.18122345 0.21123628 -0.08985415 -0.048566043 0.2789807 -0.11518714 -0.10810365
00000000: 153e 2e3e 015e 613e e3cb 293e 4d94 543e
00000010: fca8 3e3f 5d7e 48bd 8fbd d5bd 0f1b b53e
00000020: b98b 06be b8de 813e d759 243e c565 82bd
00000030: 31e5 f8bd deca 843e f02b 1fbe 3f30 04be
00000040: 5c2f 1fbe b78d a83d 33c9 3abe 9bf6 df3d
00000050: 467a f73d 295e 6a3d 6e64 38be 7c66 36bd
00000060: a136 64bc f2cb b4bd ce0d 2ebf b0ca 063f
00000070: 4c3a cebd eece b23c 9cf7 f23d 393f ad3d
00000080: da33 313e 9ac5 523e c97a 46be e3bc ccbc
00000090: 8f2c 9d3d daf6 71bb 988f d8bd 3f39 6ebd
000000a0: f4f3 2fbd a52a 47bd 8c3a 1d3e 213d 5d3e
000000b0: d3f3 43bd ba09 61be 1506 bfbe ee9c c23c
000000c0: 00d1 883e a64a d8be 547e ee3d 34a5 f3be
000000d0: f912 93bc 3251 143e 821b 5dbe a912 ca3e
000000e0: 0739 723e f334 c03c d469 1cbe 6237 5bbe
000000f0: 8aa2 d53d cf70 d0bd d4a8 713d 5fec 65bc
00000100: 7d1b e53d 773b 8bbe 5ae7 99be a91a 0e3e
00000110: fbda 96be cd3a 623e 3e45 71bd 6fae 553e
00000120: 9fd9 8f3d f170 c3bd 46ac d53e afb1 683e
00000130: c422 0c3e 482c 06bd 2b40 12be 0c74 9b3d
00000140: 89f8 c83c 45fa f83d f1c5 38be 627e 2ebe
00000150: e769 ccbe 2b10 cebe b865 5f3e 50a7 38bd
00000160: 4cbe 62be ceed 9ebd a8d0 9b3e 19a6 d3be
00000170: 072a bdbe 68f5 b1bd 4e0e 3f3d b7dd cc3d
00000180: 31e3 d93d 2ead ca3d 52c8 413d ead9 a4be
00000190: 3bbe a9be 623d 3f3e 671a debd a029 2b3e
000001a0: be71 d3bd 6d62 98bb 4cd5 cabd 1eb0 123e
000001b0: e96d 7e3c 3569 453e 87f5 9e3e 3af5 45be
000001c0: 8171 403e fa38 ad3e e8c7 93be e407 ad3c
000001d0: 3268 7d3e 0552 943d a3da 123c aa61 443c
000001e0: b438 e9bd 09e7 6dbd 091d 6c3e ad4d d73d
000001f0: 1742 92be 55c6 263e b0de 893d 6352 e83d
00000200: 8d50 883c c5c6 71bd 9d3a 013f 4cc0 f53d
00000210: 293c 87be 8e8b e13e 106a 81bd bc05 833e
00000220: 463a d6bd c4b6 e93c cd14 203e c1c1 b5bd
00000230: 6c7e a2bd 737e 8d3d 5ce3 703e 5dbb 603c
00000240: ea45 ba3d 4500 94bc 7ae7 843d 7446 05bd
00000250: b4c2 2dbd 118f 88bd 57d7 bb3d 6aca 813d
00000260: aec2 aa3d 6110 a6be f45d d83e f9e0 bf3e
00000270: 7d93 8fbd da3f 52be 5260 9fba 674c dd3d
00000280: 8152 77be c2b6 183d 3f0a 223d ed2f 623e
00000290: 5f69 83be de0d 993d adb4 8cbd 53b0 dfbd
000002a0: ea80 4e3e e9cf 873e 6e61 93be 801e 14bd
000002b0: 6c03 d13d 995b db3e 3163 0dbf db9d 683e
000002c0: 69c4 a93e f6fc f73c db97 ff3d 587b 5dbb
000002d0: ccb0 3a3e 0fab 4dbe 887e a63e 4ca8 c53d
000002e0: 8048 b9bd 8891 74be a290 c53b 9584 9f3c
000002f0: 885d 3fbe f7e4 1d3f e822 113e 0535 03bf
00000300: 605c 4bbd 34ba 1d3e e62b d2bd dbf4 3a3e
00000310: 9c00 5cbe 6722 14bd c7e0 9fbe 1441 153f
00000320: 7533 2f3e 1481 16bf 5d96 103f e431 c03d
00000330: c876 09bd 3d8f fcbd f427 c5be c632 b53d
00000340: 7502 953b 17a8 d13c f1a4 a83e b9bc 9a3e
00000350: 7c84 62be a56b 193e 3230 0b3d a324 12bf
00000360: 47b6 893d c4ac 303d c64b 093e 3ed0 3fbc
00000370: 1be1 6bbe 1c48 5a3e 9712 883d 81da 6e3e
00000380: 0de2 41be 6bcd aebd d33e 67be 172e 323e
00000390: 71a6 2fbd eb8d 0dbe 2f7a fa3d 0848 88bd
000003a0: 279d 2fbe 1a83 65bc 3ec4 a13d 8921 98bd
000003b0: 39ce b83d d3c6 073d 7cd9 16bc 3898 44be
000003c0: acf9 a13b c39d c2bd 9047 50be 2ffd 9fbd
000003d0: 09cc 8dbc 2fdf 3a3e 44b8 0fbd 502c 88be
000003e0: 2b5b 8b3d a492 39be 534e 583e 7405 b8bd
000003f0: 30ed 46bd 8fd6 8e3e 3ce7 ebbd 7265 ddbd

weight f4 [200]
1.0320653 1.0175065 1.049206 0.96853656 1.0027221 0.9791315 1.0662935 0.97164047
0.9561355 1.0470123 0.951599 1.0122185 1.0032732 0.97198904 0.9685983 0.97862786
0.977849 0.9866459 1.1036506 1.0110297 0.98343235 0.9745998 1.008944 1.0037764
1.0239723 0.9468908 1.1285331 0.9742088 0.98411393 1.0362344 1.0215721 0.98653615
0.9581905 0.92412907 1.0628496 0.9599378 1.0063357 1.0448936 1.0203614 1.0034152
0.99212086 0.8743413 0.98784083 0.9621115 1.0147029 1.0225713 0.96859264 1.002611
0.99448514 0.96580607 0.9652643 0.9928937 0.9385914 1.0959581 1.035064 0.9922264
0.9792953 0.9922764 1.0072566 1.2078968 0.99719656 1.0097563 0.9688795 0.92997414
1.0019063 1.0214275 0.97551674 1.0426948 1.0725167 1.0880897 1.0313379 0.98832184
1.131644 1.1099775 0.95953214 0.97828645 0.99331677 1.0795064 0.9897889 1.1028903
0.99883395 0.9848618 0.9898392 1.0170909 1.001193 0.931549 1.0104693 0.99892026
1.0457233 0.97884935 1.0272995 1.0434599 1.051488 1.0096633 1.005088 1.0231324
0.93914604 0.99623483 0.87445253 0.98383605 1.008846 0.9617603 1.0364063 0.9841883
1.018671 1.0411636 0.9596786 0.9985676 0.97964704 0.98623455 1.02049 1.0425069
0.92686075 0.99880886 0.9909262 1.0052835 0.9594694 0.9853937 1.0157686 0.982688
1.0063736 0.94614214 1.0466648 0.9785 1.0121917 0.98302835 1.0324827 0.9882032
0.9186845 0.9567816 0.97755176 1.0316778 1.0000999 1.0122952 0.9801323 1.0670389
0.93470013 1.1710376 1.0162915 0.97020876 1.0253228 0.94849837 1.0078872 1.0111017
1.02758 0.96193737 1.0101051 0.96622217 1.123604 0.97980094 1.0330849 0.9888202
0.9527817 0.93779063 1.006412 0.9486728 0.9766221 1.0433556 1.0819308 1.0465381
0.9901088 0.99059856 0.90530044 0.97340053 0.9835455 0.96696407 0.9647199 0.9811811
1.0134511 0.9654621 0.98661524 0.9836966 0.95509225 0.94818765 0.9616571 1.0309522
0.93068606 0.9735974 1.0374737 1.0594077 0.98943 1.0171579 0.96519935 0.9500974
0.9593316 0.9730339 0.96186143 1.003537 0.99421555 1.0271628 1.0433174 0.988836
1.0090044 0.9317374 0.90199906 0.971621 0.9693802 0.95571095 0.98789805 1.0008192
00000000: b71a 843f a73d 823f 624c 863f 03f2 773f
00000010: 3359 803f 5da8 7a3f 4e7c 883f 6ebd 783f
00000020: 4cc5 743f 8004 863f fe9b 733f 6090 813f
00000030: 426b 803f 46d4 783f 0ff6 773f 5b87 7a3f
00000040: 5054 7a3f d394 7c3f 6c44 8d3f 6c69 813f
00000050: 39c2 7b3f 5f7f 793f 1425 813f bf7b 803f
00000060: 8611 833f 6f67 723f c673 903f bf65 793f
00000070: e4ee 7b3f 54a3 843f e0c2 823f a28d 7c3f
00000080: f94b 753f b993 6c3f 750b 883f 7cbe 753f
00000090: 9ccf 803f 13bf 853f 349b 823f e96f 803f
000000a0: a2fb 7d3f d5d4 5f3f 23e3 7c3f f04c 763f
000000b0: c9e1 813f 9ee3 823f b0f5 773f 8f55 803f
000000c0: 9496 7e3f 113f 773f 901b 773f 482e 7e3f
000000d0: 8747 703f 5b48 8c3f fa7c 843f 8d02 7e3f
000000e0: 19b3 7a3f d305 7e3f c9ed 803f 5d9c 9a3f
000000f0: 4648 7f3f b23f 813f 7d08 783f c912 6e3f
00000100: 773e 803f 23be 823f 77bb 793f 0677 853f
00000110: 3a48 893f 8646 8b3f e102 843f a902 7d3f
00000120: b6d9 903f be13 8e3f e6a3 753f fb70 7a3f
00000130: 024a 7e3f 442d 8a3f ce62 7d3f 822b 8d3f
00000140: 95b3 7f3f e71f 7c3f 1a66 7d3f 0930 823f
00000150: 1827 803f ff79 6e3f 0f57 813f 3db9 7f3f
00000160: 43da 853f df95 7a3f 8d7e 833f 1890 853f
00000170: 2997 863f a63c 813f b9a6 803f 01f6 823f
00000180: e06b 703f 3f09 7f3f 1fdc 5f3f aedc 7b3f
00000190: de21 813f ec35 763f f6a8 843f c4f3 7b3f
000001a0: d063 823f d944 853f 7fad 753f 20a2 7f3f
000001b0: 26ca 7a3f de79 7c3f 6b9f 823f de70 853f
000001c0: bf46 6d3f f0b1 7f3f 57ad 7d3f 21ad 803f
000001d0: c99f 753f c342 7c3f b504 823f 7191 7b3f
000001e0: dad0 803f 5f36 723f 1df9 853f fa7e 7a3f
000001f0: 7f8f 813f bfa7 7b3f 6528 843f e3fa 7c3f
00000200: e82e 6b3f a4ef 743f d540 7a3f 050e 843f
00000210: 4603 803f e492 813f f3e9 7a3f bb94 883f
00000220: 8248 6f3f 8fe4 953f d715 823f 9a5f 783f
00000230: c73d 833f cad0 723f 7302 813f c86b 813f
00000240: be87 833f 8741 763f 204b 813f 565a 773f
00000250: 42d2 8f3f 3cd4 7a3f 203c 843f 5223 7d3f
00000260: 80e9 733f 0c13 703f 1cd2 803f 38dc 723f
00000270: e803 7a3f ad8c 853f b57c 8a3f f6f4 853f
00000280: c577 7d3f de97 7d3f c5c1 673f c730 793f
00000290: a3c9 7b3f f58a 773f e2f7 763f af2e 7b3f
000002a0: c4b8 813f 8628 773f d192 7c3f 8ad3 7b3f
000002b0: ed80 743f 6dbc 723f 292f 763f 3ef6 833f
000002c0: 7141 6e3f ae3d 793f f0cb 843f ac9a 873f
000002d0: 494b 7d3f 3b32 823f 4e17 773f 9539 733f
000002e0: c196 753f c018 793f 8d3c 763f e773 803f
000002f0: e984 7e3f 127a 833f 6d8b 853f 5b24 7d3f
00000300: 0e27 813f 5886 6e3f 69e9 663f 27bc 783f
00000310: 4d29 783f 79a9 743f e3e6 7c3f d81a 803f

bias f4 [200]
0.040523402 0.2965325 -0.23853542 0.10421567 -0.19449662 -0.016724588 -0.11306637 0.08932614
0.28636366 -0.13454036 0.07655696 0.015079815 0.14881401 -0.12830897 -0.2913758 -0.009204746
-0.034796268 -0.039658256 -0.11874789 -0.051134035 -0.032962244 0.12707484 -0.17055878 -0.12877351
-0.29808468 -0.044949777 0.12694159 -0.118876785 -0.18814634 -0.11587028 -0.09823937 -0.25575012
-0.16151617 -0.19908139 0.17052217 0.1288051 -0.10297299 -0.11830942 0.1299391 0.018640313
-0.017283838 -0.053673748 -0.18391903 0.068887204 -0.06505049 -0.09246158 -0.17990576 -0.009415861
0.071078815 -0.05706541 -0.107853435 -0.11216097 -0.14265448 -0.011434665 0.0060354816 -0.004392231
0.058593854 -0.217558 0.14574689 0.05116791 -0.028947778 -0.15041648 -0.27222562 -0.18521622
0.04847128 0.050558437 -0.028926661 -0.038060028 0.0801856 0.0012697807 -0.043348562 -0.060204476
0.16026916 -0.040372062 -0.049123384 0.02266664 0.054252185 -0.11845554 0.10290671 0.033843517
-0.05286524 0.19812684 0.07990777 -0.1854322 -0.11001833 -0.24136874 -0.16436322 0.013976727
0.011564482 0.078670315 -0.20876512 -0.013534183 0.09737807 -0.05108826 -0.15679069 0.11393872
0.056218382 -0.070392594 -0.06241709 -0.15393625 -0.039302085 -0.07797641 0.049046904 -0.16437528
0.07674163 -0.2879558 0.06538687 -0.031128978 -0.089761265 -0.045422282 -0.110317335 0.22506146
0.14465588 -0.015572589 0.04676253 -0.09800209 -0.028679607 -0.06417793 -0.06672562 -0.16120824
0.0375499 -0.035063267 0.008023952 -0.10391835 -0.07643979 -0.03344934 0.010794475 0.06528866
0.0065490403 -0.07732553 -0.15685199 0.08545464 0.20531538 0.1897223 0.008389448 -0.033968363
0.016614033 0.117396876 -0.12152048 0.002589613 0.10849755 0.03763936 -0.13260983 -0.17799269
-0.007293712 -0.07383966 0.04077289 0.027192231 0.16991894 -0.061238598 0.022097364 0.0016313413
-0.054819055 -0.0865677 -0.0062426077 0.030343907 0.0025765891 0.07408921 -0.19960822 0.038376316
0.028743122 -0.18782015 -0.010118465 -0.052810654 -0.09780332 0.036385264 0.06529913 -0.034452174
-0.08450847 0.018380137 -0.028997703 -0.16784292 -0.22099765 0.007962255 -0.029142812 0.13503319
-0.094754 0.03542702 -0.03629483 -0.117866 -0.1822791 0.23224127 -0.08129335 0.13493356
0.06777278 -0.0054570483 -0.12465648 -0.000818044 -0.03733284 -0.29096234 -0.13072017 -0.15225309
-0.009440459 -0.09816225 -0.072857484 -0.015789242 -0.05288334 -0.019214831 0.255378 -0.19644776
00000000: defb 253d 1cd3 973e a142 74be 066f d53d
00000010: 1f2a 47be 0102 89bc 578f e7bd a0f0 b63d
00000020: 429e 923e f3c4 09be e5c9 9c3d 5411 773c
00000030: b362 183e 6d63 03be 352f 95be 81cf 16bc
00000040: 8886 0ebd b270 22bd 1832 f3bd ec71 51bd
00000050: 6b03 07bd e81f 023e f6a6 2ebe 34dd 03be
00000060: 8e9e 98be 421d 38bd fafc 013e ac75 f3bd
00000070: 6fa9 40be 664d edbd b931 c9bd aef1 82be
00000080: 7f64 25be fedb 4bbe 5d9d 2e3e 7ce5 033e
00000090: 81e3 d2bd 364c f2bd c10e 053e 92b3 983c
000000a0: d696 8dbc 01d9 5bbd 4555 3cbe bc14 8d3d
000000b0: 3139 85bd 7f5c bdbd 3739 38be fc44 1abc
000000c0: c591 913d 6bbd 69bd 43e2 dcbd a7b4 e5bd
000000d0: 0414 12be 7658 3bbc 4ac5 c53b b4ec 8fbb
000000e0: 1c00 703d 86c7 5ebe ac3e 153e 7195 513d
000000f0: e423 edbc c706 1abe 2861 8bbe 52a9 3dbe
00000100: d289 463d 5d16 4f3d 9bf7 ecbc d5e4 1bbd
00000110: 5938 a43d c56e a63a 438e 31bd f898 76bd
00000120: 991d 243e 2d5d 25bd 9a35 49bd 64af b93c
00000130: 8a37 5e3d d198 f2bd c1c0 d23d 809f 0a3d
00000140: 3989 58bd c3e1 4a3e afa6 a33d f0e1 3dbe
00000150: 4a51 e1bd 5e29 77be d54e 28be a4fe 643c
00000160: f478 3d3c e71d a13d 86c6 55be 7abe 5dbc
00000170: 276e c73d ec41 51bd bd8d 20be b458 e93d
00000180: 3f45 663d fe29 90bd 10a9 7fbd 77a1 1dbe
00000190: 39fb 20bd 19b2 9fbd 68e5 483d fe51 28be
000001a0: b72a 9d3d f16e 93be 8de9 853d 3302 ffbc
000001b0: c1d4 b7bd b70c 3abd 0eee e1bd 8376 663e
000001c0: ac20 143e 2c24 7fbc 118a 3f3d 52b5 c8bd
000001d0: 7ff1 eabc b86f 83bd 71a7 88bd c613 25be
000001e0: edcd 193d 809e 0fbd e576 033c 25d3 d4bd
000001f0: 778c 9cbd 2d02 09bd 4fdb 303c 10b6 853d
00000200: 5599 d63b d95c 9ebd cf9d 20be d802 af3d
00000210: 323e 523e 9046 423e e573 093c 6922 0bbd
00000220: 271a 883c c66d f03d bbdf f8bd 7fb6 293b
00000230: f733 de3d bb2b 1a3d dfca 07be b743 36be
00000240: 1700 efbb 3f39 97bd 7901 273d 3ec2 de3c
00000250: 3bff 2d3e 53d5 7abd 8805 b53c bbd2 d53a
00000260: f289 60bd 684a b1bd ca8e ccbb c993 f83c
00000270: fedb 283b 15bc 973d 1966 4cbe 7c30 1d3d
00000280: b276 eb3c ed53 40be ebc7 25bc fc4f 58bd
00000290: 1b4d c8bd b708 153d 8dbb 853d b91d 0dbd
000002a0: c712 adbd f191 963c 978c edbc 04df 2bbe
000002b0: 354d 62be 1e74 023c e8bc eebc 2446 0a3e
000002c0: 630e c2bd ec1b 113d e3a9 14bd bb63 f1bd
000002d0: 5fa7 3abe a8d0 6d3e 217d a6bd 062c 0a3e
000002e0: 75cc 8a3d 0ad1 b2bb e64b ffbd 0172 56ba
000002f0: 52ea 18bd 04f9 94be 82db 05be 3ce8 1bbe
00000300: 28ac 1abc 4a09 c9bd 4e36 95bd 7158 81bc
00000310: 339c 58bd 6c68 9dbc e8c0 823e 9a29 49be

running_mean f4 [200]
0.061623815 0.13291653 0.051438943 0.013050416 0.337743 0.09729937 0.06557879 0.078743756
0.07024456 6.163634e-05 0.037458867 0.23678619 0.20601241 0.10696543 0.1031458 0.09726392
0.20877898 0.11827871 0.006209462 0.0995563 0.06814438 0.058242325 0.03003906 0.16237345
0.05114386 0.08726535 0.008311357 0.20945773 0.03295865 0.11158847 0.0787898 0.18088204
0.04759252 0.08159937 0.0793547 0.3259793 0.048668392 0.032697063 0.015462016 0.1330348
0.026003603 0.11079381 0.018437793 0.13258909 0.058930773 0.0039641475 0.043797534 0.25894022
0.084025115 0.10704437 0.16036806 0.19667274 0.12457306 0.023395775 0.020586789 0.019776186
0.25951838 0.084455416 0.13110018 0.016896507 0.0129164355 0.231433 0.2705538 0.087340236
0.08383313 0.0049237427 0.11060763 0.012512823 0.035720266 0.034979302 0.074498534 0.19919075
0.013828584 0.07593778 0.11863332 0.069524676 0.3405741 0.012457884 0.11978769 0.020164665
0.11972338 0.23485278 0.045111425 0.16735916 0.13098195 0.15746121 0.102185965 0.1563406
0.16589575 0.1000553 0.03487978 0.09071498 0.13246503 0.3125055 0.031786226 0.1271393
0.26028925 0.005537676 0.11537162 0.12895183 0.12672266 0.15603052 0.24553771 0.110275626
0.06800138 0.1637085 0.16620734 0.08795753 0.07022314 0.09066415 0.08060102 0.10784432
0.14736012 0.003528944 0.21740389 0.042858835 0.17597814 0.05484642 0.26521176 0.09378786
0.073271625 0.10197372 0.08753818 0.08306269 0.152273 0.16751805 0.096989915 0.104003005
0.22051734 0.076898865 0.10748877 0.025925603 0.06675016 0.030852593 0.15789875 0.0064609516
0.048551068 0.025798313 0.18809168 0.06053931 0.107208885 0.18582338 0.1571789 0.02683316
0.028892701 0.24147785 0.16022545 0.3436097 0.04502184 0.06413253 0.030750105 0.06501455
0.050440323 0.101489015 0.20468758 0.07032958 0.05418589 0.17235765 0.005914271 0.24952474
0.1333686 0.025436155 0.17716745 0.12907937 0.17725556 0.1090453 0.05925032 0.13055721
0.040447377 0.09525171 0.031103812 0.07981641 0.1335275 0.022520928 0.048187625 0.2017771
0.09497924 0.1012693 0.025052452 0.028524833 0.16531537 0.10447564 0.10193193 0.08575545
0.15878378 0.135527 0.06710706 0.14577974 0.010833358 0.06993895 0.036708172 0.113084584
0.3491996 0.054642227 0.10811642 0.3070712 0.12752526 0.30413306 0.05392855 0.17961007
00000000: 4169 7c3d 451b 083e a4b1 523d 69d1 553c
00000010: a7ec ac3e e444 c73d 2c4e 863d 6844 a13d
00000020: 61dc 8f3d c242 8138 786e 193d 1478 723e
00000030: ebf4 523e b110 db3d 1b3e d33d 4e32 c73d
00000040: 28ca 553e 1c3c f23d be78 cb3b 2ce4 cb3d
00000050: 488f 8b3d 818f 6e3d 7a14 f63c 3a45 263e
00000060: 397c 513d 2db8 b23d 5c2c 083c 167c 563e
00000070: a6ff 063d 7f88 e43d 8c5c a13d 2439 393e
00000080: 60f0 423d 921d a73d b884 a23d c2e6 a63e
00000090: 8258 473d 5bed 053d 6554 7d3c 463a 083e
000000a0: 8205 d53c dde7 e23d db0a 973c 6fc5 073e
000000b0: 6561 713d aee5 813b 0b65 333d d093 843e
000000c0: 5c15 ac3d 143a db3d 8637 243e 9464 493e
000000d0: 2920 ff3d 7fa8 bf3c a0a5 a83c ab01 a23c
000000e0: 98df 843e f6f6 ac3d 203f 063e 8b6a 8a3c
000000f0: 759f 533c c6fc 6c3e 0786 8a3e 70df b23d
00000100: b4b0 ab3d 5957 a13b 4186 e23d 9502 4d3c
00000110: 6a4f 123d 7546 0f3d b092 983d a9f8 4b3e
00000120: 4991 623c 4485 9b3d 07f6 f23d f462 8e3d
00000130: ba5f ae3e 271c 4c3c 4053 f53d 5e30 a53c
00000140: 8831 f53d 3f7d 703e c2c6 383d 3360 2b3e
00000150: 2220 063e 833d 213e e046 d13d c017 203e
00000160: 93e0 293e cbe9 cc3d 1ade 0e3d c7c8 b93d
00000170: eaa4 073e b900 a03e 4632 023d ce30 023e
00000180: a244 853e 6575 b53b f547 ec3d f30b 043e
00000190: 96c3 013e 77c6 1f3e 3d6e 7b3e 30d8 e13d
000001a0: 4f44 8b3d 33a3 273e 4232 2a3e 1423 b43d
000001b0: 26d1 8f3d 20ae b93d 2612 a53d 7cdd dc3d
000001c0: 92e5 163e db45 673b 209f 5e3e bf8c 2f3d
000001d0: 9d33 343e a4a6 603d d6c9 873e d913 c03d
000001e0: 6f0f 963d 99d7 d03d 3847 b33d c61c aa3d
000001f0: 74ed 1b3e da89 2b3e a6a2 c63d 87ff d43d
00000200: 4ccf 613e 277d 9d3d 1223 dc3d ee61 d43c
00000210: 4fb4 883d 94be fc3c 36b0 213e 64b6 d33b
00000220: 7cdd 463d fc56 d33c 1b9b 403e 11f8 773d
00000230: 5590 db3d 7c48 3e3e 81f3 203e 37d1 db3c
00000240: 63b0 ec3c f845 773e 2412 243e 9ced af3e
00000250: d268 383d ea57 833d a5e7 fb3c 5926 853d
00000260: 839a 4e3d 79d9 cf3d 9f99 513e f408 903d
00000270: 06f2 5d3d 867e 303e 80cc c13b 6a83 7f3e
00000280: c791 083e 7c5f d03c 626b 353e 622d 043e
00000290: 7b82 353e 2453 df3d 77b0 723d cab0 053e
000002a0: 26ac 253d 5413 c33d 6ccd fe3c c976 a33d
000002b0: 6fbb 083e cf7d b83c 6360 453d a89e 4e3e
000002c0: 7a84 c23d 4766 cf3d cd3a cd3c e9ac e93c
000002d0: 6f48 293e 53f7 d53d b0c1 d03d 8ea0 af3d
000002e0: 3798 223e 97c7 0a3e 6d6f 893d 4947 153e
000002f0: 667e 313c 273c 8f3d 4f5b 163d e498 e73d
00000300: 4aca b23e 87d0 5f3d 246c dd3d 7038 9d3e
00000310: fb95 023e 54b7 9b3e 2fe4 5c3d b4eb 373e

running_var f4 [200]
0.01353636 0.025168663 0.008416192 0.002410397 0.065910235 0.04259821 0.018463962 0.018680494
0.02167521 5.66531e-06 0.00691282 0.040747564 0.048434492 0.028678628 0.026737219 0.022782605
0.030754253 0.0358279 0.0011588663 0.012937152 0.011446624 0.008835094 0.0070338836 0.06835723
0.013666931 0.025495926 0.001891231 0.046408616 0.0070076454 0.019982573 0.014233736 0.031274468
0.01263977 0.016390951 0.009133094 0.08438415 0.01522012 0.0125822285 0.0023315228 0.034172215
0.009489312 0.030527363 0.0050716545 0.041093208 0.0165092 0.0010700242 0.010093692 0.04943986
0.01910209 0.019673645 0.019759692 0.04987075 0.04335197 0.0027638183 0.0043382943 0.0062748184
0.07163717 0.021896567 0.021743322 0.0031882366 0.0015220018 0.036918227 0.05465821 0.019847982
0.01561986 0.0017259736 0.042332623 0.0036179083 0.005990249 0.0074518574 0.017530087 0.05301607
0.0026548295 0.007020941 0.022428557 0.0128474245 0.090462156 0.0033676564 0.02111725 0.0025392498
0.038206235 0.03963039 0.0072047035 0.045131564 0.025671905 0.023772698 0.025343847 0.024618419
0.06324955 0.029182982 0.005405913 0.01741689 0.015780902 0.057131633 0.009994791 0.037740096
0.048502278 0.0006238074 0.029256824 0.029554982 0.020581154 0.031715352 0.03658356 0.01992168
0.015572815 0.026982637 0.04018175 0.013508682 0.02190616 0.04009213 0.018621972 0.018127782
0.026260965 0.00081579026 0.042532448 0.008564986 0.031012464 0.01220622 0.077870995 0.022015678
0.015899492 0.02180574 0.011086001 0.013110159 0.027998753 0.04417715 0.024191203 0.014470498
0.043875195 0.012373651 0.029041672 0.006012844 0.010924119 0.005101115 0.04283825 0.00092687143
0.013762907 0.004023434 0.027247533 0.018846748 0.03575396 0.024789182 0.03223156 0.005333453
0.0038822365 0.059329778 0.04637478 0.064018294 0.008264652 0.009740722 0.0045508496 0.013037976
0.018451504 0.020184476 0.021888513 0.020535603 0.012720852 0.051664323 0.0009545341 0.029754898
0.029827192 0.006399082 0.06667487 0.031174146 0.035211213 0.021761075 0.0073365257 0.030663302
0.010720026 0.020321906 0.006439959 0.021974662 0.042296503 0.004469968 0.010529126 0.042401183
0.026191963 0.02921202 0.0059746755 0.0027166076 0.017588262 0.030232012 0.017145414 0.018167723
0.042203844 0.024136003 0.017441198 0.04517704 0.0025928812 0.0108532775 0.006329327 0.04706029
0.06361683 0.010509727 0.0428502 0.06948781 0.0417559 0.09662431 0.008380992 0.019409843
00000000: 9cc7 5d3c 832e ce3c 11e4 093c c0f7 1d3b
00000010: f2fb 863d 767b 2e3d bc41 973c d607 993c
00000020: 3690 b13c a418 be36 f084 e23b ebe6 263d
00000030: 3f63 463d 71ef ea3c 0308 db3c 96a2 ba3c
00000040: 58f0 fb3c 47c0 123d 1ae5 973a 59f6 533c
00000050: 9f8a 3b3c 12c1 103c 7e7c e63b e0fe 8b3d
00000060: 43eb 5f3c d5dc d03c 2fe3 f73a f616 3e3d
00000070: 64a0 e53b 7eb2 a33c 9e34 693c a819 003d
00000080: 0a17 4f3c 5146 863c f9a2 153c 99d1 ac3d
00000090: cf5d 793c b125 4e3c 76cc 183b 2af8 0b3d
000000a0: 0f79 1b3c 8514 fa3c 1f30 a63b 5a51 283d
000000b0: 4d3e 873c 0e40 8c3a 0360 253c 7381 4a3d
000000c0: fc7b 9c3c a02a a13c 14df a13c 4645 4c3d
000000d0: d691 313d 2d21 353b 4028 8e3b fe9c cd3b
000000e0: 82b6 923d 6e60 b33c 0d1f b23c bcf1 503b
000000f0: e87d c73a 9137 173d 4ae1 5f3d 3c98 a23c
00000100: 71ea 7f3c 103a e23a f964 2d3d 6e1a 6d3b
00000110: da49 c43b b62e f43b 429b 8f3c 6127 593d
00000120: a6fc 2d3b ec0f e63b 18bc b73c 017e 523c
00000130: 3944 b93d e6b3 5c3b 15fe ac3c 8b69 263b
00000140: 247e 1c3d 7a53 223d 6f15 ec3b e0db 383d
00000150: e34d d23c f6be c23c e69d cf3c 91ac c93c
00000160: fb88 813d 2611 ef3c 1624 b13b dead 8e3c
00000170: f346 813c dc02 6a3d 31c1 233c 5c95 1a3d
00000180: 53aa 463d 0287 233a 02ac ef3c 4a1d f23c
00000190: cf99 a83c f5e7 013d a5d8 153d cb32 a33c
000001a0: 1f25 7f3c b10a dd3c 9e95 243d 8553 5d3c
000001b0: 8c74 b33c a537 243d 1b8d 983c b780 943c
000001c0: 3c21 d73c c2da 553a 8136 2e3d 2854 0c3c
000001d0: da0d fe3c 99fc 473c d47a 9f3d 395a b43c
000001e0: a73f 823c f4a1 b23c 0fa2 353c fecb 563c
000001f0: a45d e53c 19f3 343d a12c c63c ab15 6d3c
00000200: 7ab6 333d dbba 4a3c cde8 ed3c 6407 c53b
00000210: 13fb 323c 4127 a73b 2977 2f3d 4af9 723a
00000220: d17d 613c 03d7 833b 3836 df3c 7f64 9a3c
00000230: bf72 123d af12 cb3c 3e05 043d 3fc4 ae3b
00000240: 1f6d 7e3b c803 733d 7bf3 3d3d 061c 833d
00000250: 7768 073c 8d97 1f3c 4b1f 953b 3c9d 553c
00000260: 9c27 973c ea59 a53c 8a4f b33c 483a a83c
00000270: 1f6b 503c f89d 533d b339 7a3a 8bc0 f33c
00000280: 2858 f43c 64af d13b d68c 883d ec60 ff3c
00000290: a239 103d 4844 b23c 3d67 f03b 9b31 fb3c
000002a0: 0ca3 2f3c 207a a63c 4b06 d33b 3504 b43c
000002b0: 193f 2d3d cf78 923b 5b82 2c3c ddac 2d3d
000002c0: 8790 d63c 0c4e ef3c 36c7 c33b 1d09 323b
000002d0: 4215 903c 20a9 f73c 8a74 8c3c 7ad4 943c
000002e0: f0dd 2c3d deb8 c53c d8e0 8e3c 8f0b 393d
000002f0: 54ed 293b f2d1 313c 3e66 cf3b 4ac2 403d
00000300: 8a49 823d fd30 2c3c b183 2f3d a04f 8e3d
00000310: 3c08 2b3d f7e2 c53d 6e50 093c 6401 9f3c

weight f4 [100, 200]
0.0052371956 -0.04391363 0.10314105 -0.0068401704 0.04605989 -0.033737708 -0.09359136 -0.08681819
-0.0681718 0.01656425 -0.0025136415 0.032909255 -0.07257091 0.023643509 0.03485376 -0.012489926
-0.048317347 -0.030083127 0.021245962 0.031386003 -0.035351593 -0.043529466 -0.03180778 -0.08188494
0.005826692 -0.090019435 -0.031373825 -0.055146683 0.059980184 0.058072943 -0.045864657 0.03300381
0.059170783 0.01966851 0.039163526 0.070496365 0.02462039 -0.05193091 -0.05134466 0.0153732635
-0.038654923 -0.04290793 0.027149752 0.050350454 0.023879519 -0.0001574557 -0.028810352 0.047580276
0.0031666409 0.020277176 -0.06324263 0.03003086 -0.05699187 0.07912508 0.05305139 0.020598182
0.06180642 0.027428702 -0.027700515 -0.08616755 -0.0046870247 -0.0079693375 -0.06824072 -0.021457188
0.0502278 0.04937041 0.031099403 0.053517245 -0.012005672 -0.028189108 -0.0055173044 -0.03319048
0.028530871 0.092894495 0.026996074 0.012753101 -0.0124518555 -0.04846418 -0.0023904224 -0.036274593
-0.06177895 -0.026712177 -0.020955509 0.025582083 -0.057072777 0.027419614 -0.053973883 -0.021453707
-0.014705541 -0.02330135 0.0075107897 -0.022793762 -0.0018366023 -0.06500603 -0.048665874 -0.085016176
0.005621812 -0.059906233 -0.048231322 0.030150186 0.038496286 -0.030385895 -0.00329074 -0.04173062
0.0011025589 -0.0717069 -0.017105121 -0.106036685 -0.074329615 -0.014040288 -0.0011816014 0.035937015
0.021811632 -0.018719006 0.0029387726 -0.0041165915 -0.010869303 -0.009693551 -0.006640075 -0.06608957
-0.020190828 -0.080124095 -0.046108086 -0.0790226 0.0672478 -0.074888065 0.08412432 0.010810579
-0.0561697 0.08173101 -0.01379713 -0.076281376 -0.029629191 0.011564179 -0.087966524 -0.0009347337
0.008285751 -0.053609498 -0.0059373532 -0.057120193 -0.038806792 0.04457632 -0.109253325 -0.0157458
0.03695569 -0.051804103 0.037679862 -0.08131393 0.03191043 0.018128915 0.0006929634 -0.071807876
0.00034365675 0.023347028 -0.034582675 -0.034462094 -0.09260838 -0.06571172 0.027174259 0.05709641
0.0026189743 0.06698644 -0.054490026 -0.016290324 -0.004277391 -0.044554155 0.050697163 0.012726409
-0.05462216 0.040895358 -0.033674814 -0.054546475 0.0036288227 -0.051828448 -0.016497454 0.021509346
0.045164578 0.0012715305 0.009807906 0.024366077 -0.05879478 0.05236669 0.06488664 -0.0054910122
-0.030307107 0.0940201 0.037151743 -0.0760518 -0.03566558 -0.059797313 0.032554418 0.03165643
-0.04587631 0.0043675858 -0.0048010643 -0.059793636 -0.0050532827 0.038888752 0.011325759 -0.0003273316
-0.024250707 0.06522464 0.060489044 -0.011710684 0.044093978 -0.009138225 0.04682156 -0.07029739
-0.09976433 -0.072856784 0.030611573 -0.059488222 -0.03962669 -0.007414877 -0.005627869 -0.013147429
-0.14930859 -0.025576394 0.021822417 -0.008220415 -0.15120642 -0.065757535 0.07905668 -0.03729414
0.08586115 -0.033310983 0.015073279 -0.1476333 -0.052094787 -0.02856462 0.0023015963 -0.088403106
0.059245754 -0.049115703 -0.026412848 0.00073491107 0.030174749 -0.07180105 -0.015768485 0.042869035
0.019164247 -0.036028776 0.04486578 -0.028879475 -0.03034481 0.09510589 0.04465111 -0.035892833
-0.030664206 0.048165116 -0.0060551763 0.005572823 -0.030951148 -0.047859903 0.027757922 0.022881784
00000000: c89c ab3b c7de 33bd 9d3b d33d 8223 e0bb
00000010: 4ca9 3c3d 8d30 0abd d4ac bfbd bccd b1bd
00000020: a89d 8bbd c0b1 873c e8bb 24bb dbcb 063d
00000030: 0fa0 94bd 08b0 c13c d1c2 0e3d 8ca2 4cbc
00000040: 69e8 45bd e470 f6bc 030c ae3c 9c8e 003d
00000050: d5cc 10bd f44b 32bd e048 02bd 4bb3 a7bd
00000060: d6ed be3b 1c5c b8bd d781 00bd 7de1 61bd
00000070: c8ad 753d e5dd 6d3d 94dc 3bbd 012f 073d
00000080: 105d 723d db1f a13c ef69 203d 6660 903d
00000090: b3b0 c93c 82b5 54bd c74e 52bd 24e0 7b3c
000000a0: a054 1ebd 3ac0 2fbd 2869 de3c 473c 4e3d
000000b0: fb9e c33c b11a 25b9 b003 ecbc 89e3 423d
000000c0: 6b87 4f3b 521c a63c 5a85 81bd 4703 f63c
000000d0: 4f70 69bd 540c a23d 6a4c 593d 85bd a83c
000000e0: bb28 7d3d 28b2 e03c 31ec e2bc 9d78 b0bd
000000f0: 9d95 99bb d391 02bc cac1 8bbd fcc6 afbc
00000100: aabb 4d3d a138 4a3d 2dc4 fe3c e634 5b3d
00000110: 70b3 44bc d8ec e6bc 81ca b4bb bef2 07bd
00000120: 93b9 e93c 783f be3d df26 dd3c 62f2 503c
00000130: de02 4cbc 6082 46bd a2a8 1cbb ab94 14bd
00000140: ed0b 7dbd 7fd3 dabc e3aa abbc 8491 d13c
00000150: 25c5 69bd 199f e03c b813 5dbd afbf afbc
00000160: 82ef 70bc 79e2 bebc 121d f63b fcb9 babc
00000170: 26ba f0ba e221 85bd de55 47bd f61c aebd
00000180: 2d37 b83b 3d60 75bd 358e 45bd 86fd f63c
00000190: 48ae 1d3d d7eb f8bc 75a9 57bb baed 2abd
000001a0: bd83 903a 11db 92bd 0a20 8cbc c329 d9bd
000001b0: 203a 98bd 3c09 66bc f7df 9aba b132 133d
000001c0: 4fae b23c 9a58 99bc 6c98 403b 79e4 86bb
000001d0: 2915 32bc b3d1 1ebc fc94 d9bb f859 87bd
000001e0: 3c67 a5bc 1a18 a4bd d5db 3cbd 9ad6 a1bd
000001f0: 37b9 893d ea5e 99bd 5f49 ac3d db1e 313c
00000200: 3312 66bd 9662 a73d 5c0d 62bc 6939 9cbd
00000210: ebb8 f2bc af77 3d3c cb27 b4bd eb08 75ba
00000220: f5c0 073c a295 5bbd 218e c2bb ddf6 69bd
00000230: dff3 1ebd a995 363d 35c0 dfbd 56fd 80bc
00000240: d95e 173d 8a30 54bd 3356 1a3d eb87 a6bd
00000250: 83b4 023d 1783 943c fda7 353a 0210 93bd
00000260: d42c b439 4442 bf3c 90a6 0dbd 2028 0dbd
00000270: 76a9 bdbd de93 86bd 8d9c de3c eddd 693d
00000280: 19a3 2b3b 3030 893d ef30 5fbd 4973 85bc
00000290: 5b29 8cbb 6b7e 36bd d4a7 4f3d 6e82 503c
000002a0: 7cbb 5fbd e481 273d 9aee 09bd 206c 5fbd
000002b0: 8bd1 6d3b 114a 54bd ab25 87bc 5e34 b03c
000002c0: 7efe 383d 7ca9 a63a 57b1 203c 5e9b c73c
000002d0: ccd2 70bd 747e 563d 49e3 843d f3ed b3bb
000002e0: 9c46 f8bc 9c8d c03d 6d2c 183d 0cc1 9bbd
000002f0: 1216 12bd 07ee 74bd c857 053d 2caa 013d
00000300: cce8 3bbd f71d 8f3b 3f52 9dbb 2cea 74bd
00000310: 0296 a5bb d049 1f3d ad8f 393c b49d abb9
00000320: 6ba9 c6bc 7f94 853d 5cc3 773d 2bde 3fbc
00000330: e39b 343d 7eb8 15bc f7c7 3f3d 14f8 8fbd
00000340: 3e51 ccbd f035 95bd 1fc5 fa3c eca9 73bd
00000350: 994f 22bd 7ff8 f2bb fd69 b8bb 5068 57bc
00000360: 5ae4 18be 9685 d1bc edc4 b23c ebae 06bc
00000370: dbd5 1abe e3ab 86bd 78e8 a13d bdc1 18bd
00000380: f8d7 af3d 1971 08bd eaf5 763c 2f2d 17be
00000390: 5861 55bd 5a00 eabc 61d6 163b b00c b5bd
000003a0: adab 723d 8c2d 49bd c25f d8bc 0ca7 403a
000003b0: 0931 f73c 6e0c 93bd e92c 81bc 7197 2f3d
000003c0: 57fe 9c3c e992 13bd 2ec5 373d a694 ecbc
000003d0: ae95 f8bc e0c6 c23d 15e4 363d 5d04 13bd
000003e0: 8033 fbbc c948 453d 806a c6bb 3a9c b63b
000003f0: 438d fdbc bf08 44bd 9564 e33c 9472 bb3c

weight f4 [100]
0.87645024 0.7756096 0.29612744 0.5329628 0.9061041 0.54234564 0.8899471 0.7354402
0.8789714 0.9142595 0.86786693 0.7695239 0.45357907 0.9023623 0.76756436 0.8960607
0.8919579 0.7789529 0.8053431 0.84077084 0.8464645 0.89858854 0.9082391 0.7434092
0.87145686 0.72846144 0.8478693 0.9137197 0.82327765 0.89984757 0.8574877 0.42129132
0.5614048 0.86720246 0.8874269 0.9064585 0.8950669 0.7965455 0.8001221 0.91843617
0.8473056 0.75330794 0.83066994 0.888674 0.87322944 0.86270744 0.8824758 0.8541517
0.46052295 0.89496946 0.85005856 0.89363676 0.90714633 0.82179296 0.8881029 0.8491001
0.48342654 0.904275 0.77916896 0.88589233 0.8264135 0.7500201 0.8633648 0.84603786
0.7934074 0.8984423 0.9235627 0.90026355 0.81776154 0.8364309 0.77952445 0.7567216
0.90449417 0.869022 0.70763034 0.90544957 0.8861618 0.7345902 0.8678689 0.9132003
0.90053105 0.8661352 0.9234989 0.914553 0.71659714 0.87611663 0.8345433 0.90973186
0.8423139 0.9150673 0.88982475 0.8384379 0.828842 0.8663895 0.88572097 0.72057045
0.9061571 0.8630945 0.8731666 0.88116753
00000000: 0b5f 603f 5a8e 463f 049e 973e 4070 083f
00000010: 70f6 673f 2ad7 0a3f 93d3 633f cf45 3c3f
00000020: 4504 613f e90c 6a3f 872c 5e3f 85ff 443f
00000030: 843b e83e 3701 673f 197f 443f 3c64 653f
00000040: 5a57 643f 7569 473f f72a 4e3f c23c 573f
00000050: e6b1 583f e609 663f 5c82 683f 1150 3e3f
00000060: cc17 5f3f 737c 3a3f f60d 593f 89e9 693f
00000070: 53c2 523f 695c 663f 5084 5b3f 7fb3 d73e
00000080: 3ab8 0f3f fb00 5e3f 692e 633f aa0d 683f
00000090: 1b23 653f 68ea 4b3f cdd4 4c3f a21e 6b3f
000000a0: 05e9 583f cad8 403f c9a6 543f 2480 633f
000000b0: f78b 5f3f 65da 5c3f efe9 613f b0a9 5a3f
000000c0: aac9 eb3e b81c 653f 709d 593f 61c5 643f
000000d0: be3a 683f 0661 523f b65a 633f a05e 593f
000000e0: af83 f73e 917e 673f 9e77 473f d7c9 623f
000000f0: d68f 533f 5101 403f 7a05 5d3f f095 583f
00000100: bf1c 4b3f 5100 663f 9b6e 6c3f ac77 663f
00000110: d258 513f 5620 563f ea8e 473f 82b8 413f
00000120: ee8c 673f 3a78 5e3f 4327 353f 8bcb 673f
00000130: 80db 623f 1a0e 3c3f a82c 5e3f 7fc7 693f
00000140: 3489 663f 09bb 5d3f 6d6a 6c3f 2520 6a3f
00000150: e972 373f 2e49 603f a1a4 553f 30e4 683f
00000160: e2a1 573f da41 6a3f 8ecb 633f dea3 563f
00000170: fd2e 543f b4cb 5d3f 9cbe 623f 4e77 383f
00000180: e9f9 673f c3f3 5c3f d987 5f3f 3294 613f

bias f4 [100]
0.006852579 0.015056063 -0.011622294 0.056611255 0.02566573 -0.022585088 -0.032808043 0.039703548
-0.025701543 -0.0132481335 0.029442538 0.024912799 0.022845501 -0.022314757 -0.05366424 -0.029156687
-0.0252269 -0.012385697 -0.026912512 -0.047696237 -0.027731953 0.008267333 -0.041963432 -0.010259667
-0.04087557 0.016213492 0.03968014 -0.03912867 -0.021567728 0.0019273916 -0.025822932 0.011881422
0.009231701 0.033509273 0.025821794 -0.00010800008 -0.047543064 0.036091294 0.018815007 0.013803409
-0.015187017 -0.029215269 -0.013619057 0.011417706 -0.055346612 0.00078584894 -0.04032767 -0.015979085
-0.035697583 -0.041101396 0.023095982 -0.038860574 0.026166402 -0.051883224 -0.00788908 -0.060648657
-0.025953941 0.026426828 -0.013025384 0.027600268 -0.0058753192 -0.015025064 0.03867055 0.040123083
0.008075259 -0.0619574 -0.0364293 -0.032417927 0.068073705 0.032088675 -0.01818748 0.026077049
0.014596769 0.007813476 -0.019379025 -0.002257826 0.036552258 0.00875551 0.030392755 -0.000711974
-0.041507617 -0.027788935 -0.043595616 -0.02653957 -0.011746878 -0.041568257 0.02996483 0.03128415
-0.024636792 -0.027954264 0.004757061 -0.026613545 -0.04001354 0.019126764 0.016234916 0.03778955
0.013726871 0.028981538 0.01451478 0.036748964
00000000: 998b e03b b5ad 763c 6f6b 3ebc 34e1 673d
00000010: f040 d23c 5d04 b9bc ba61 06bd 30a0 223d
00000020: 0b8c d2bc b30e 59bc 7a31 f13c ed15 cc3c
00000030: 7d26 bb3c 70cd b6bc 09cf 5bbd 01da eebc
00000040: a5a8 cebc 61ed 4abc a177 dcbc 215d 43bd
00000050: 1f2e e3bc b573 073c d9e1 2bbd 2a18 28bc
00000060: 246d 27bd 28d2 843c a487 223d 6245 20bd
00000070: ceae b0bc 88a0 fc3a 9d8a d3bc 4caa 423c
00000080: 8f40 173c 0541 093d 3a88 d33c 1a7e e2b8
00000090: 84bc 42bd 77d4 133d ee21 9a3c b227 623c
000000a0: f7d2 78bc dc54 efbc 7722 5fbc 5411 3b3c
000000b0: 21b3 62bd 6e01 4e3a a02e 25bd 92e6 82bc
000000c0: a137 12bd f059 28bd c933 bd3c 442c 1fbd
000000d0: ec5a d63c 8183 54bd 3341 01bc ba6a 78bd
000000e0: 5c9d d4bc 137d d83c 6c68 55bc f519 e23c
000000f0: c085 c0bb b02b 76bc 0365 1e3d 1a58 243d
00000100: 174e 043c 0bc7 7dbd e436 15bd a9c8 04bd
00000110: 3a6a 8b3d 6a6f 033d e9fd 94bc 899f d53c
00000120: 4927 6f3c 1804 003c c3c0 9ebc 09f8 13bb
00000130: d2b7 153d 4573 0f3c 3afa f83c c4a3 3aba
00000140: e403 2abd 9fa5 e3bc 5191 32bd 8369 d9bc
00000150: fa75 40bc 7a43 2abd ce78 f53c cf23 003d
00000160: 19d3 c9bc 5700 e5bc 1fe1 9b3b a604 dabc
00000170: 3de5 23bd bbaf 9c3c 16ff 843c 37c9 1a3d
00000180: ace6 603c b16a ed3c 66cf 6d3c 1586 163d

running_mean f4 [100]
0.7232665 1.2552236 1.4076896 0.60026634 0.8848286 0.945047 0.5153413 0.99068534
0.24484517 0.71229815 0.6578635 1.7772777 1.9103959 1.1284497 0.54614353 1.1710579
0.68333095 1.4678887 0.46252164 0.35850692 0.56927943 0.23708671 0.34048814 0.5769279
0.95411146 0.74424285 0.6374972 0.66335875 0.5597337 0.5196843 0.6697784 0.96715355
0.8343616 0.60148144 0.71749246 0.46932584 0.7214208 0.6634032 0.96976864 1.1917616
0.52921945 0.611244 1.4751363 1.2386707 0.5429431 1.3978097 0.5965199 0.58000094
1.4146097 0.44215015 0.7330144 1.9251753 1.0407963 0.44016778 0.35422933 0.8717598
0.6440771 0.5500898 1.3263084 0.69564867 0.46224982 1.3615661 0.82320154 1.2038487
1.1959496 0.47686383 1.2092187 0.413922 0.7307015 0.7680019 0.70287466 0.45364347
0.5664132 0.75338334 1.0671735 1.3848062 1.1384293 0.9700492 0.7896098 1.3059007
1.1074028 0.71982723 0.5015296 0.853538 1.8089454 0.7730513 0.7346643 0.97842044
0.36523727 1.2590431 0.75569934 0.84881926 0.40196463 1.0445805 0.7397195 0.9299388
0.7432455 0.5895979 0.6677996 0.64541566
00000000: fe27 393f 2bab a03f 2c2f b43f 0eab 193f
00000010: 2184 623f 9aee 713f 68ed 033f 8e9d 7d3f
00000020: b1b8 7a3e 2c59 363f be69 283f d67d e33f
00000030: da87 f43f 0a71 903f 10d0 0b3f 3ae5 953f
00000040: c7ee 2e3f c7e3 bb3f a3cf ec3e 388e b73e
00000050: 4cbc 113f dcc6 723e 7654 ae3e 8cb1 133f
00000060: a640 743f b386 3e3f 0433 233f e1d1 293f
00000070: b54a 0f3f 080a 053f 9976 2b3f 6097 773f
00000080: b998 553f b0fa 193f 96ad 373f 7a4b f03e
00000090: 09af 383f cbd4 293f c242 783f a58b 983f
000000a0: ed7a 073f 7d7a 1c3f 44d1 bc3f c38c 9e3f
000000b0: 52fe 0a3f 6eeb b23f 87b5 183f f17a 143f
000000c0: ee11 b53f 8161 e23e d5a6 3b3f 256c f63f
000000d0: d038 853f ac5d e13e 8c5d b53e a62b 5f3f
000000e0: 3de2 243f afd2 0c3f 79c4 a93f 0816 323f
000000f0: 02ac ec3e cc47 ae3f 56bd 523f b717 9a3f
00000100: e014 993f 7f27 f43e aec7 9a3f 96ed d33e
00000110: 410f 3b3f c69b 443f 98ef 333f f543 e83e
00000120: 7500 113f bbdd 403f 2499 883f 5441 b13f
00000130: 0db8 913f 2555 783f de23 4a3f c127 a73f
00000140: 60bf 8d3f 9946 383f 3e64 003f 7781 5a3f
00000150: 868b e73f b1e6 453f f612 3c3f c379 7a3f
00000160: 6100 bb3e 5328 a13f 8375 413f 384c 593f
00000170: 4fce cd3e d0b4 853f 425e 3d3f 7810 6e3f
00000180: 5645 3e3f e3ef 163f eaf4 2a3f f639 253f

running_var f4 [100]
0.83790404 2.3880935 2.6208277 1.2531831 1.8123744 4.0522738 1.4722489 2.859968
0.14610511 2.175597 1.1779181 5.8043838 6.409638 2.9247718 0.58986926 3.704994
2.6404476 2.3052738 1.0412619 0.31327304 1.4581696 0.5846301 0.79401946 0.70406204
1.5836638 2.196779 0.87854075 1.8928663 0.36319935 1.3879601 1.6572415 2.1936696
3.2743623 0.83631283 0.95058143 0.30420452 2.2678733 0.8859318 1.833402 4.2638826
0.7950563 0.7226125 2.7588441 4.068066 0.60010165 2.8784537 1.4447099 0.7241757
7.1921105 0.8296647 0.7494652 4.5615573 1.5506532 1.1877179 0.2728061 1.2335906
1.63475 0.5023247 3.189347 0.7789781 1.0136147 7.546905 0.883246 2.7066405
2.7887719 0.4157261 5.4222593 1.058096 1.2825674 1.2718635 0.7901923 0.44770008
0.52061075 1.1066933 4.7958364 2.7774208 2.309959 1.5837002 1.0604906 2.734622
4.71048 1.1224004 1.4331174 3.0171232 3.959804 1.9415618 0.741225 2.0426893
1.3844706 4.1924973 0.9087354 2.0169718 0.71622336 2.627821 1.2896521 1.5667118
1.1355927 0.659768 1.265153 1.0183331
00000000: e180 563f 86d6 1840 a4bb 2740 4e68 a03f
00000010: e2fb e73f 3aac 8140 a772 bc3f b709 3740
00000020: 949c 153e fb3c 0b40 05c6 963f 83bd b940
00000030: c11b cd40 762f 3b40 ac01 173f 9f1e 6d40
00000040: 18fd 2840 9b89 1340 1248 853f 5365 a03e
00000050: 4da5 ba3f 51aa 153f dc44 4b3f 693d 343f
00000060: 7fb5 ca3f 0798 0c40 0ce8 603f 7149 f23f
00000070: 44f5 b93e ada8 b13f 7d20 d43f 1565 0c40
00000080: 278f 5140 9918 563f 4e59 733f b2c0 9b3e
00000090: d624 1140 6dcc 623f ebac ea3f ba71 8840
000000a0: cf88 4b3f 22fd 383f e790 3040 992d 8240
000000b0: 43a0 193f 9638 3840 41ec b83f 9463 393f
000000c0: c525 e640 e864 543f f4dc 3f3f 47f8 9140
000000d0: ce7b c63f 2407 983f 3ead 8b3e 4ce6 9d3f
000000e0: 7d3f d13f 5a98 003f 431e 4c40 1c6b 473f
000000f0: 20be 813f 3f80 f140 691c 623f 9939 2d40
00000100: 3d7b 3240 0dda d43e 2683 ad40 b16f 873f
00000110: 2b2b a43f 6ccc a23f 0b4a 4a3f f238 e53e
00000120: bf46 053f 20a8 8d3f 7e77 9940 43c1 3140
00000130: 5ed6 1340 b0b6 ca3f 28be 873f 0c04 2f40
00000140: 41bc 9640 d1aa 8f3f 6470 b73f 8c18 4140
00000150: 6e6d 7d40 1985 f83f ecc0 3d3f 6cbb 0240
00000160: 5536 b13f f028 8640 e2a2 683f 1116 0140
00000170: 6a5a 373f 382e 2840 5213 a53f 038a c83f
00000180: 1a5b 913f 8ee6 283f 89f0 a13f bd58 823f

weight f4 [1, 100]
-0.01761881 -0.01614287 -0.01179612 -0.0017573088 -0.020895831 0.028767418 0.0393222 -0.018750045
0.0042516785 0.04270174 -0.020418428 -0.023170723 -0.016740594 0.029222362 0.0008918785 0.033578906
0.03013966 -0.016570255 0.013699433 -0.0049312087 0.0215329 0.045106724 0.044642128 0.0012386079
0.026493168 0.033724412 -0.019619063 0.02896703 -0.012236469 0.046780765 0.02025783 -0.0055555673
0.022370633 -0.02381746 -0.021791486 -0.016367435 0.035877243 -0.0186714 -0.02141646 -0.019438477
-0.0038049615 -0.0060232705 -0.01987889 0.046007693 0.003166076 0.02489358 0.029428173 0.013301852
0.01903681 0.033108275 0.022904692 0.032292638 -0.017501483 0.017866869 -0.015420136 0.028035644
0.018173993 -0.011078155 -0.024107276 -0.009141094 0.005438682 0.022978084 -0.02375099 -0.02058029
-0.017487217 -0.0053172586 0.03462142 0.033419997 -0.019972181 -0.008814886 -0.010271198 -0.0062369797
-0.019475115 -0.012139738 0.023791144 0.032298457 -0.020698719 -0.022573551 -0.030149296 0.03631969
0.028818293 0.031955402 0.02967197 0.031927735 -0.011130565 0.02836172 -0.022629619 -0.030698841
0.029782148 0.036890283 -0.010156564 0.019980196 0.014898966 -0.019583562 -0.02172094 -0.015528608
-0.00736303 -0.015275939 0.011332414 -0.024205394
00000000: 5355 90bc 0d3e 84bc 8344 41bc 8055 e6ba
00000010: bc2d abbc a6a9 eb3c 5110 213d b299 99bc
00000020: aa51 8b3b 05e8 2e3d 8c44 a7bc 87d0 bdbc
00000030: 9223 89bc bc63 ef3c f4cc 693a 098a 093d
00000040: 73e7 f63c 58be 87bc 9673 603c fa95 a1bb
00000050: c465 b03c d4c1 383d aada 363d c958 a23a
00000060: 3308 d93c 9c22 0a3d 28b8 a0bc 444c ed3c
00000070: 797b 48bc 309d 3f3d c0f3 a53c 7a0b b6bb
00000080: 9e42 b73c d51c c3bc 0f84 b2bc 0015 86bc
00000090: 04f4 123d c4f4 98bc 9271 afbc 713d 9fbc
000000a0: a95c 79bb db5e c5bb 0ed9 a2bc 9072 3c3d
000000b0: f17d 4f3b 9fed cb3c 5a13 f13c 03f0 593c
000000c0: 16f3 9b3c 8b9c 073d 9fa2 bb3c 4945 043d
000000d0: 455f 8fbc 8a5d 923c bda4 7cbc 02ab e53c
000000e0: a0e1 943c 2681 35bc 9f7c c5bc 87c4 15bc
000000f0: f936 b23b 893c bc3c 7091 c2bc ff97 a8bc
00000100: 5a41 8fbc 663c aebb 31cf 0d3d 68e3 083d
00000110: b39c a3bc 506c 10bc 8748 28bc 945f ccbb
00000120: 478a 9fbc c0e5 46bc a5e5 c23c 634b 043d
00000130: 5c90 a9bc 2bec b8bc a8fb f6bc f5c3 143d
00000140: 5714 ec3c abe3 023d a212 f33c a8c6 023d
00000150: f95c 36bc d656 e83c c061 b9bc 237c fbbc
00000160: b1f9 f33c 441a 173d b867 26bc 82ad a33c
00000170: cb1a 743c b56d a0bc 1df0 b1bc b46b 7ebc
00000180: 9345 f1bb ef47 7abc 97ab 393c 644a c6bc
